…
$LD_LIBRARY_PATH:/usr/local/cuda/lib64/:/usr/lib64:/usr/local/cuda/extras/CUPTI/lib64:/usr/local/cuda-11.2/lib64:/usr/local/cuda/targets/x86_64-linux/lib/
Num GPUs Available:  8
Model: "model"
__________________________________________________________________________________________________
Layer (type)                    Output Shape         Param #     Connected to                     
==================================================================================================
input_2 (InputLayer)            [(None, 257, 31, 1)] 0                                            
__________________________________________________________________________________________________
batch_normalization (BatchNorma (None, 257, 31, 1)   4           input_2[0][0]                    
__________________________________________________________________________________________________
permute (Permute)               (None, 31, 257, 1)   0           batch_normalization[0][0]        
__________________________________________________________________________________________________
conv2d (Conv2D)                 (None, 31, 257, 16)  96          permute[0][0]                    
__________________________________________________________________________________________________
batch_normalization_1 (BatchNor (None, 31, 257, 16)  64          conv2d[0][0]                     
__________________________________________________________________________________________________
conv2d_1 (Conv2D)               (None, 31, 257, 32)  2592        batch_normalization_1[0][0]      
__________________________________________________________________________________________________
batch_normalization_2 (BatchNor (None, 31, 257, 32)  128         conv2d_1[0][0]                   
__________________________________________________________________________________________________
conv2d_2 (Conv2D)               (None, 31, 257, 16)  2576        batch_normalization_2[0][0]      
__________________________________________________________________________________________________
batch_normalization_3 (BatchNor (None, 31, 257, 16)  64          conv2d_2[0][0]                   
__________________________________________________________________________________________________
concatenate (Concatenate)       (None, 31, 257, 32)  0           batch_normalization_1[0][0]      
                                                                 batch_normalization_3[0][0]      
__________________________________________________________________________________________________
conv2d_3 (Conv2D)               (None, 31, 257, 1)   161         concatenate[0][0]                
__________________________________________________________________________________________________
batch_normalization_4 (BatchNor (None, 31, 257, 1)   4           conv2d_3[0][0]                   
__________________________________________________________________________________________________
squeeze_last_dim (Lambda)       (None, 31, 257)      0           batch_normalization_4[0][0]      
__________________________________________________________________________________________________
bidirectional (Bidirectional)   (None, 31, 128)      164864      squeeze_last_dim[0][0]           
__________________________________________________________________________________________________
bidirectional_1 (Bidirectional) (None, 31, 128)      98816       bidirectional[0][0]              
__________________________________________________________________________________________________
lambda (Lambda)                 (None, 128)          0           bidirectional_1[0][0]            
__________________________________________________________________________________________________
dense (Dense)                   (None, 128)          16512       lambda[0][0]                     
__________________________________________________________________________________________________
dot (Dot)                       (None, 31)           0           dense[0][0]                      
                                                                 bidirectional_1[0][0]            
__________________________________________________________________________________________________
attSoftmax (Softmax)            (None, 31)           0           dot[0][0]                        
__________________________________________________________________________________________________
dot_1 (Dot)                     (None, 128)          0           attSoftmax[0][0]                 
                                                                 bidirectional_1[0][0]            
__________________________________________________________________________________________________
dense_1 (Dense)                 (None, 64)           8256        dot_1[0][0]                      
__________________________________________________________________________________________________
dense_2 (Dense)                 (None, 32)           2080        dense_1[0][0]                    
__________________________________________________________________________________________________
output (Dense)                  (None, 10)           330         dense_2[0][0]                    
==================================================================================================
Total params: 296,547
Trainable params: 296,415
Non-trainable params: 132
__________________________________________________________________________________________________
('You must install pydot (`pip install pydot`) and install graphviz (see instructions at https://graphviz.gitlab.io/download/) ', 'for plot_model/model_to_dot to work.')
…
